…
  from ._conv import register_converters as _register_converters
(37, 35)
(39, 32)
(36, 36)
(35, 39)
(33, 35)
(32, 33)
(34, 37)
(37, 36)
(38, 41)
(37, 35)
(34, 36)
(40, 48)
(32, 30)
(38, 36)
(39, 40)
(36, 40)
(37, 36)
(39, 46)
(36, 36)
(40, 35)
(39, 34)
(36, 35)
(38, 29)
(37, 43)
You have chosen: Namespace(bsize=24, epo=50, f1=11250, f2=50, f3=100, f4=1, m=1604)
 
x and y (1000, 75, 75, 3) (1000,)
_________________________________________________________________
Layer (type)                 Output Shape              Param #   
=================================================================
conv2d_1 (Conv2D)            (None, 73, 73, 64)        1792      
_________________________________________________________________
max_pooling2d_1 (MaxPooling2 (None, 36, 36, 64)        0         
_________________________________________________________________
dropout_1 (Dropout)          (None, 36, 36, 64)        0         
_________________________________________________________________
conv2d_2 (Conv2D)            (None, 34, 34, 128)       73856     
_________________________________________________________________
max_pooling2d_2 (MaxPooling2 (None, 17, 17, 128)       0         
_________________________________________________________________
dropout_2 (Dropout)          (None, 17, 17, 128)       0         
_________________________________________________________________
conv2d_3 (Conv2D)            (None, 15, 15, 128)       147584    
_________________________________________________________________
max_pooling2d_3 (MaxPooling2 (None, 7, 7, 128)         0         
_________________________________________________________________
dropout_3 (Dropout)          (None, 7, 7, 128)         0         
_________________________________________________________________
conv2d_4 (Conv2D)            (None, 5, 5, 64)          73792     
_________________________________________________________________
max_pooling2d_4 (MaxPooling2 (None, 2, 2, 64)          0         
_________________________________________________________________
dropout_4 (Dropout)          (None, 2, 2, 64)          0         
_________________________________________________________________
flatten_1 (Flatten)          (None, 256)               0         
_________________________________________________________________
dense_1 (Dense)              (None, 512)               131584    
_________________________________________________________________
activation_1 (Activation)    (None, 512)               0         
_________________________________________________________________
dropout_5 (Dropout)          (None, 512)               0         
_________________________________________________________________
dense_2 (Dense)              (None, 256)               131328    
_________________________________________________________________
activation_2 (Activation)    (None, 256)               0         
_________________________________________________________________
dropout_6 (Dropout)          (None, 256)               0         
_________________________________________________________________
dense_3 (Dense)              (None, 1)                 257       
_________________________________________________________________
activation_3 (Activation)    (None, 1)                 0         
=================================================================
Total params: 560,193
Trainable params: 560,193
Non-trainable params: 0
_________________________________________________________________
_________________________________________________________________
Layer (type)                 Output Shape              Param #   
=================================================================
conv2d_1 (Conv2D)            (None, 73, 73, 64)        1792      
_________________________________________________________________
max_pooling2d_1 (MaxPooling2 (None, 36, 36, 64)        0         
_________________________________________________________________
dropout_1 (Dropout)          (None, 36, 36, 64)        0         
_________________________________________________________________
conv2d_2 (Conv2D)            (None, 34, 34, 128)       73856     
_________________________________________________________________
max_pooling2d_2 (MaxPooling2 (None, 17, 17, 128)       0         
_________________________________________________________________
dropout_2 (Dropout)          (None, 17, 17, 128)       0         
_________________________________________________________________
conv2d_3 (Conv2D)            (None, 15, 15, 128)       147584    
_________________________________________________________________
max_pooling2d_3 (MaxPooling2 (None, 7, 7, 128)         0         
_________________________________________________________________
dropout_3 (Dropout)          (None, 7, 7, 128)         0         
_________________________________________________________________
conv2d_4 (Conv2D)            (None, 5, 5, 64)          73792     
_________________________________________________________________
max_pooling2d_4 (MaxPooling2 (None, 2, 2, 64)          0         
_________________________________________________________________
dropout_4 (Dropout)          (None, 2, 2, 64)          0         
_________________________________________________________________
flatten_1 (Flatten)          (None, 256)               0         
_________________________________________________________________
dense_1 (Dense)              (None, 512)               131584    
_________________________________________________________________
activation_1 (Activation)    (None, 512)               0         
_________________________________________________________________
dropout_5 (Dropout)          (None, 512)               0         
_________________________________________________________________
dense_2 (Dense)              (None, 256)               131328    
_________________________________________________________________
activation_2 (Activation)    (None, 256)               0         
_________________________________________________________________
dropout_6 (Dropout)          (None, 256)               0         
_________________________________________________________________
dense_3 (Dense)              (None, 1)                 257       
_________________________________________________________________
activation_3 (Activation)    (None, 1)                 0         
=================================================================
Total params: 560,193
Trainable params: 560,193
Non-trainable params: 0
_________________________________________________________________
None
Train on 1000 samples, validate on 604 samples
Epoch 1/50
2018-06-28 15:52:44.347522: W tensorflow/core/platform/cpu_feature_guard.cc:45] The TensorFlow library wasn't compiled to use SSE4.1 instructions, but these are available on your machine and could speed up CPU computations.
…
